media/460/canonical_flame_param.npz (npz, 65412 bytes, 8 tensors)

translation f4 [1, 3]
0.0 0.0 0.0
00000000: 0000 0000 0000 0000 0000 0000

rotation f4 [1, 3]
0.0 0.0 0.0
00000000: 0000 0000 0000 0000 0000 0000

neck_pose f4 [1, 3]
0.0 0.0 0.0
00000000: 0000 0000 0000 0000 0000 0000

jaw_pose f8 [1, 3]
0.3 0.0 0.0
00000000: 3333 3333 3333 d33f 0000 0000 0000 0000
00000010: 0000 0000 0000 0000

eyes_pose f4 [1, 6]
0.0 0.0 0.0 0.0 0.0 0.0
00000000: 0000 0000 0000 0000 0000 0000 0000 0000
00000010: 0000 0000 0000 0000

shape f4 [300]
-2.2476501 -0.29580238 -0.13392138 -0.17336078 -0.86652803 0.7941463 0.44264925 -0.3754532
0.22536814 0.20537296 -0.24514177 -0.48611096 -0.054284595 -0.09817922 0.23466507 0.3988142
0.2755898 -0.011133129 -0.48640662 0.11362856 0.26057673 -0.39524296 -0.11234875 0.013098095
0.5470048 -0.32655495 -0.06955548 0.12887183 -0.401404 0.15673627 0.09923698 -0.22441858
0.11242035 -0.06929664 -0.07052884 0.0370815 0.017514065 -0.15916075 0.09991968 0.07114871
-0.1404942 0.22169533 -0.10738395 0.095316805 -0.039215013 0.28171164 0.0029579557 -0.07127767
-0.08352532 -0.09398497 -0.024000846 -0.14485112 0.092838205 -0.117933534 -0.13968094 0.087102674
0.098643005 0.048670363 -0.03825867 -0.12347195 -0.058781028 -0.15625928 -0.21645622 -0.008202703
0.038828757 0.013354753 0.047073238 -0.032489277 0.07187094 0.01850587 -0.02166426 0.08186893
0.005928633 0.09883585 -0.014921169 -0.08026083 0.11953498 -0.08832119 -0.069976725 0.01988232
0.069202065 -0.01766923 -0.045479745 0.012712079 -0.02342788 -0.0057369783 -0.035138886 -0.0051311227
0.056674838 0.04036867 0.029278914 -0.11564822 0.04899973 0.037161957 -0.05629018 -0.06300004
0.015405011 0.17011537 -0.05523226 0.072399534 0.13238144 0.01235405 -0.021484612 0.028691808
0.03967429 -0.03518707 0.010706806 -0.032412373 0.025773576 -0.10697061 0.013283133 0.019526254
-0.054665636 0.04764893 0.03814866 0.04132897 0.046557862 0.027357316 0.06647579 0.05930313
-0.00064394664 -0.04645503 0.01012904 -0.019335765 -0.0042736805 -0.0012202979 0.043054305 0.045261234
0.00050853484 -0.033586137 -0.00078491797 -0.0032838997 0.012409475 0.010438911 -0.07511583 -0.017209345
-0.0022299024 -0.06048715 0.01387241 -0.07148145 -0.034193538 0.008694299 0.050294735 0.003570282
-0.06991245 0.009224904 -0.014202625 0.032275897 -0.0041870787 0.0661125 0.023824688 0.04673339
0.017514013 0.035798147 0.03822262 -0.02017331 0.056909602 -0.025764173 -0.0076205465 -0.0024092225
-0.010399883 0.0060604326 0.05871676 0.02322669 -0.011538873 0.004857492 0.017870603 0.003930832
-0.05206053 -0.025980854 -0.009348646 -0.0073734084 -0.032742996 -0.03381954 0.042817123 -0.04135897
-0.009056787 -0.017601972 -0.009982103 -0.022320602 -0.01624639 0.00615726 0.010671985 0.008221861
0.007254344 -0.02206538 -0.0036678603 -0.014309115 -0.02116229 -0.017884294 0.011269118 -0.03178578
0.0015602077 -0.004256473 -0.0063320873 0.0051758946 0.012546379 -0.0019866072 -0.0006726168 -0.017570626
0.005814996 -0.0053624436 0.01581965 -0.009665443 -0.025049737 0.027515123 -0.012916716 -0.039123937
0.019375645 0.025650065 0.019261738 -0.008725191 -0.0022775477 0.032963403 -0.020316146 0.031767886
0.04489919 0.009357017 0.017496293 0.023436481 0.054837756 -0.028481033 -0.058500025 -0.0034821613
-0.0036467 0.0007843027 -0.0012297486 -0.0035105697 0.0100218905 -0.011768561 0.01782177 -0.03497974
-0.0027873833 0.004940396 -0.013564179 0.017950451 -0.033539247 0.03630852 0.012879185 -0.019408934
0.038060002 0.043089807 -0.0039447895 -0.012235744 0.027028922 0.02068334 -0.013308432 -0.002249686
0.032842398 0.0011008983 -0.0003912422 0.011779555 0.016493991 0.0074216262 -0.017481705 -0.0015457731
00000000: 80d9 0fc0 6973 97be b022 09be 7d85 31be
00000010: c8d4 5dbf 2c4d 4b3f eca2 e23e 673b c0be
00000020: e8c6 663e 4a4d 523e 7206 7bbe 89e3 f8be
00000030: 8659 5ebd 3012 c9bd 0a4c 703e 6031 cc3e
00000040: 1b1a 8d3e ba67 36bc 4a0a f9be 17b6 e83d
00000050: 506a 853e 495d cabe 1a17 e6bd 6499 563c
00000060: 8208 0c3f 3632 a7be 1a73 8ebd faf6 033e
00000070: d384 cdbe 797f 203e c23c cb3d fccd 65be
00000080: a43c e63d 66eb 8dbd 6d71 90bd c5e2 173d
00000090: a879 8f3c 09fb 22be b0a2 cc3d 6ab6 913d
000000a0: b6dd 0fbe 1a04 633e 1eec dbbd 7535 c33d
000000b0: ec9f 20bd 823c 903e 43da 413b 07fa 91bd
000000c0: 530f abbd 317b c0bd 6c9d c4bc da53 14be
000000d0: f521 be3d 2387 f1bd 8508 0fbe e362 b23d
000000e0: 5805 ca3d 935a 473d 20b5 1cbd ddde fcbd
000000f0: 60c4 70bd 6f02 20be b3a6 5dbe a164 06bc
00000100: e70a 1f3d e5cd 5a3c decf 403d 7a13 05bd
00000110: 1231 933d 9f99 973c 3f79 b1bc e6aa a73d
00000120: fa44 c23b 736a ca3d eb77 74bc ca5f a4bd
00000130: c1ce f43d bde1 b4bd f54f 8fbd 3fe0 a23c
00000140: d0b9 8d3d 10bf 90bc f848 3abd 5346 503c
00000150: d3eb bfbc 43fd bbbb cbed 0fbd fa22 a8bb
00000160: e023 683d 9e59 253d 55da ef3c f9d8 ecbd
00000170: f1b3 483d 2337 183d 8890 66bd 2a06 81bd
00000180: 4d65 7c3c b932 2e3e 393b 62bd 3546 943d
00000190: 008f 073e a468 4a3c 7f00 b0bc 150b eb3c
000001a0: 8281 223d 5120 10bd 996b 2f3c d6c2 04bd
000001b0: 1b23 d33c 6813 dbbd 7fa1 593c 86f5 9f3c
000001c0: 13e9 5fbd 862b 433d c541 1c3d 9148 293d
000001d0: 75b3 3e3d 731c e03c 7624 883d d7e7 723d
000001e0: 87ce 28ba a147 3ebd 46f4 253c 0a66 9ebc
000001f0: 3b0a 8cbb 67f2 9fba b659 303d d863 393d
00000200: 324f 053a 9e91 09bd f4c2 4dba b236 57bb
00000210: 1c51 4b3c f707 2b3c 54d6 99bd 9dfa 8cbc
00000220: 8e23 12bb 60c1 77bd 1b49 633c de64 92bd
00000230: 860e 0cbd 8872 0e3c da01 4e3d 64fb 693b
00000240: 422e 8fbd 0d24 173c 20b2 68bc bb33 043d
00000250: c333 89bb fe65 873d fe2b c33c 836b 3f3d
00000260: 8c79 8f3c 14a1 123d 528f 1c3d 7f42 a5bc
00000270: 0b1a 693d 630f d3bc c7b5 f9bb 0ce4 1dbb
00000280: 4564 2abc 9896 c63b fc80 703d e645 be3c
00000290: 8b0d 3dbc 992b 9f3b 5f65 923c 35ce 803b
000002a0: 6c3d 55bd cdd5 d4bc 102b 19bc a29c f1bb
000002b0: 851d 06bd 5c86 0abd 0261 2f3d 0668 29bd
000002c0: eb62 14bc 0332 90bc f98b 23bc b2d9 b6bc
000002d0: 2617 85bc d7c2 c93b 8dd9 2e3c fcb4 063c
000002e0: d9b5 ed3b 75c2 b4bc 7c60 70bb c770 6abc
000002f0: 8a5c adbc 1582 92bc 1ba2 383c ce31 02bd
00000300: e27f cc3a e279 8bbb 667d cfbb 8d9a a93b
00000310: 548f 4d3c bd31 02bb 8d52 30ba 46f0 8fbc
00000320: b98b be3b 70b7 afbb 3698 813c ce5b 1ebc
00000330: 1b35 cdbc 6567 e13c a2a0 53bc 6c40 20bd
00000340: acb9 9e3c 1620 d23c cbca 9d3c 1af4 0ebc
00000350: e942 15bb a204 073d 0c6e a6bc 0b1f 023d
00000360: 37e8 373d 2d4e 193c 6354 8f3c ddfd bf3c
00000370: 8e9d 603d 0e51 e9bc b99d 6fbd f934 64bb
00000380: 79fd 6ebb aa99 4d3a 842f a1ba 9611 66bb
00000390: db32 243c ecd0 40bc f6fe 913c ea46 0fbd
000003a0: 88ac 36bb 0ce3 a13b 4a3c 5ebc d30c 933c
000003b0: 7360 09bd 3eb8 143d 3803 533c 7cff 9ebc
000003c0: cee4 1b3d f07e 303d 4b43 81bb 6e78 48bc
000003d0: c26b dd3c 1c70 a93c 9c0b 5abc 786f 13bb
000003e0: c085 063d 044c 903a a41f cdb9 09ff 403c
000003f0: 681e 873c 1d31 f33b cb35 8fbc 8a9b caba

expr f4 [1, 100]
0.0 0.0 0.0 0.0 0.0 0.0 0.0 0.0
0.0 0.0 0.0 0.0 0.0 0.0 0.0 0.0
0.0 0.0 0.0 0.0 0.0 0.0 0.0 0.0
0.0 0.0 0.0 0.0 0.0 0.0 0.0 0.0
0.0 0.0 0.0 0.0 0.0 0.0 0.0 0.0
0.0 0.0 0.0 0.0 0.0 0.0 0.0 0.0
0.0 0.0 0.0 0.0 0.0 0.0 0.0 0.0
0.0 0.0 0.0 0.0 0.0 0.0 0.0 0.0
0.0 0.0 0.0 0.0 0.0 0.0 0.0 0.0
0.0 0.0 0.0 0.0 0.0 0.0 0.0 0.0
0.0 0.0 0.0 0.0 0.0 0.0 0.0 0.0
0.0 0.0 0.0 0.0 0.0 0.0 0.0 0.0
0.0 0.0 0.0 0.0
00000000: 0000 0000 0000 0000 0000 0000 0000 0000
00000010: 0000 0000 0000 0000 0000 0000 0000 0000
00000020: 0000 0000 0000 0000 0000 0000 0000 0000
00000030: 0000 0000 0000 0000 0000 0000 0000 0000
00000040: 0000 0000 0000 0000 0000 0000 0000 0000
00000050: 0000 0000 0000 0000 0000 0000 0000 0000
00000060: 0000 0000 0000 0000 0000 0000 0000 0000
00000070: 0000 0000 0000 0000 0000 0000 0000 0000
00000080: 0000 0000 0000 0000 0000 0000 0000 0000
00000090: 0000 0000 0000 0000 0000 0000 0000 0000
000000a0: 0000 0000 0000 0000 0000 0000 0000 0000
000000b0: 0000 0000 0000 0000 0000 0000 0000 0000
000000c0: 0000 0000 0000 0000 0000 0000 0000 0000
000000d0: 0000 0000 0000 0000 0000 0000 0000 0000
000000e0: 0000 0000 0000 0000 0000 0000 0000 0000
000000f0: 0000 0000 0000 0000 0000 0000 0000 0000
00000100: 0000 0000 0000 0000 0000 0000 0000 0000
00000110: 0000 0000 0000 0000 0000 0000 0000 0000
00000120: 0000 0000 0000 0000 0000 0000 0000 0000
00000130: 0000 0000 0000 0000 0000 0000 0000 0000
00000140: 0000 0000 0000 0000 0000 0000 0000 0000
00000150: 0000 0000 0000 0000 0000 0000 0000 0000
00000160: 0000 0000 0000 0000 0000 0000 0000 0000
00000170: 0000 0000 0000 0000 0000 0000 0000 0000
00000180: 0000 0000 0000 0000 0000 0000 0000 0000

static_offset f4 [1, 5143, 3]
-8.2464487e-07 2.4454323e-07 7.4481914e-09 -1.4341872e-06 -4.4422137e-07 2.755187e-08 -2.2849682e-07 2.7760677e-07
9.869141e-07 1.6476473e-07 -2.6460276e-07 5.608073e-08 -0.00018049747 1.1483289e-06 -3.234366e-05 -0.00043072877
-2.0504523e-07 4.053045e-07 -0.00036899166 -3.4715583e-07 7.624389e-08 -0.00021273764 3.215882e-05 -1.2137171e-05
0.00096044526 -0.018880561 -0.0087762065 0.00070499704 -0.010856027 -0.004426748 0.00047167807 -0.008132927
-0.0034537795 0.00032395226 -0.0076875254 -0.0035216 0.0004278156 -0.0004663646 -0.0004200909 0.0003368177
-0.001375882 -0.000819713 0.00030625804 -0.00076426944 -0.00036457164 0.00031740003 -0.00030509467 -0.00027490957
-0.0002278702 -0.0016213026 0.0006228934 -0.0012823406 -0.0014539678 0.0016849458 -0.00028498095 -0.0010036359
0.00090650684 -1.2404453e-08 -4.951726e-08 5.3481898e-08 2.723756e-07 2.2869949e-07 -4.7171324e-07 1.3281587e-07
-2.6571013e-07 1.4159893e-07 2.0611041e-07 6.3353457e-07 1.2294298e-07 5.748636e-05 -1.4300275e-06 -8.436944e-07
0.00019631925 2.3299106e-07 5.2145612e-08 0.00017561115 1.7682011e-07 1.837705e-07 0.00013058077 5.2097255e-07
1.9370748e-06 0.0004740734 -0.000969275 0.00023075852 -0.0017523795 4.184536e-06 3.1080848e-08 -0.0018704039
7.940202e-05 0.00010822018 -0.0017980043 4.760211e-07 -3.70683e-06 -0.0014412714 8.4683984e-07 -0.00014594964
-0.0013469397 7.5997997e-07 -4.062027e-05 -0.00085847446 4.7419467e-06 1.941804e-06 -0.00048441466 2.5864274e-06
-4.808368e-06 -0.0011122831 2.8529606e-05 -4.7631494e-07 -0.0018377388 0.0001438087 0.00011803814 -0.0013340343
8.909108e-06 2.1945747e-05 -0.0021166774 2.593542e-05 -5.6637077e-06 -0.0024800263 0.00011486693 1.7888702e-05
0.00016204797 -0.00012293375 0.0005603302 8.166665e-05 -0.000104054605 0.00033799506 0.00026488127 -0.00043165602
0.00072335964 0.0004499351 -0.0002510136 0.0007405057 0.00031170034 0.0001713974 0.00022003059 0.0001642004
-2.903158e-05 0.0003337376 3.385281e-08 9.9603376e-08 1.6520147e-05 2.0201853e-05 2.0586134e-05 2.179831e-05
-0.001040613 -9.627065e-05 -0.00012629101 -0.00080410234 4.4505457e-05 -7.218493e-05 -0.00070258795 0.00033503247
-3.9273473e-05 -0.0010609286 -6.196187e-05 -0.00011200811 -0.00030807385 -2.1456069e-07 -0.00045341882 -0.0002622812
0.00016013609 -0.00013794174 -3.433599e-05 2.771599e-05 -1.5960527e-08 -4.2141924e-06 7.101326e-06 -1.7834649e-06
-0.0010369116 1.1632756e-05 -7.852477e-05 -0.00042212268 3.206115e-07 -7.662437e-07 -0.00016185966 7.717357e-07
-3.9803976e-07 -0.0008912376 2.0620057e-05 -3.236754e-07 -0.0006920296 7.5704775e-05 -0.00016171686 -0.0009442114
8.001848e-06 1.7133138e-07 0.00026171628 5.3003138e-08 3.2274176e-05 0.00022644273 2.072334e-07 -3.822803e-07
-2.900188e-06 -6.291667e-07 3.0229205e-07 3.331991e-05 2.1145156e-06 1.9492007e-05 -0.00035704212 1.5530243e-07
-1.9708563e-07 -0.0004418454 6.0573217e-07 2.7786082e-06 -0.0019194443 0.00067995867 0.0001455213 -0.0014424643
0.0003079338 2.338828e-06 -0.0016012371 0.00023808268 5.5435094e-06 -0.0021900253 0.0006665943 0.00022537184
-1.2866468e-06 5.676144e-07 2.537728e-07 1.5001414e-06 2.1523483e-07 7.671685e-06 -0.00017485644 8.50691e-06
2.60658e-07 -0.00015072356 1.3974655e-05 2.4338988e-06 -8.530592e-05 -1.3867418e-05 -2.072625e-07 -3.445369e-05
5.318945e-05 5.3304416e-06 -0.0002650709 0.000106677384 -1.8164292e-06 -0.00047333847 2.593977e-06 -1.9764486e-06
-7.4233077e-07 -9.850592e-08 -2.1606434e-08 2.1000564e-07 -4.5022912e-07 9.249982e-07 -1.5994498e-06 -1.5293239e-07
2.1329031e-05 -8.153199e-07 2.3247844e-06 3.091414e-05 -2.8760403e-05 3.8934015e-08 -4.3523337e-07 -7.104005e-05
00000000: 2a5d 5db5 c449 8334 fcea ff31 4c7e c0b5
00000010: 527d eeb4 34ab ec32 ba58 75b4 fc09 9534
00000020: 1c76 8435 2fea 3034 ba0e 8eb4 6add 7033
00000030: ec43 3db9 4820 9a35 bea8 07b8 70d3 e1b9
00000040: 672a 5cb4 a098 d934 3975 c1b9 bc60 bab4
00000050: 86bb a333 5312 5fb9 45e2 0638 c1a0 4bb7
00000060: 64c6 7b3a 68ab 9abc 14ca 0fbc 8dcf 383a
00000070: 7add 31bc 410e 91bb 8f4b f739 f83f 05bc
00000080: ce58 62bb 23d8 a939 a3e7 fbbb a5ca 66bb
00000090: 704c e039 6682 f4b9 a53f dcb9 e896 b039
000000a0: f056 b4ba 02e2 56ba 4291 a039 4159 48ba
000000b0: fa23 bfb9 b668 a639 1df5 9fb9 bd21 90b9
000000c0: 71f0 6eb9 e381 d4ba ab49 233a 3614 a8ba
000000d0: 1093 beba 66d9 dc3a 7f69 95b9 6f8c 83ba
000000e0: a5a2 6d3a 5c1b 55b2 ceac 54b3 f8b3 6533
000000f0: 043b 9234 7090 7534 c63f fdb4 269c 0e34
00000100: eca6 8eb4 6b0a 1834 334f 5d34 2a10 2a35
00000110: 4f02 0434 821d 7138 5fef bfb5 3d7a 62b5
00000120: 0cdb 4d39 182c 7a34 b5f6 5f33 4224 3839
00000130: f1db 3d34 7352 4534 82ec 0839 f6d8 0b35
00000140: b1fe 0136 0e8d f839 f216 7eba c5f7 7139
00000150: 19b0 e5ba e468 8c36 c17d 0533 5728 f5ba
00000160: a384 a638 44f4 e238 03ab ebba d88f ff34
00000170: dbc2 78b6 0be9 bcba 6452 6335 0f0a 19b9
00000180: cc8b b0ba 6d01 4c35 af5f 2ab8 3f0b 61ba
00000190: 031d 9f36 f04f 0236 09f9 fdb9 7c92 2d36
000001a0: 9157 a1b6 07ca 91ba dd52 ef37 3ab8 ffb4
000001b0: 48e0 f0ba 5bcb 1639 3e8b f738 c3da aeba
000001c0: 5478 1537 2218 b837 f4b7 0abb e48f d937
000001d0: e10a beb6 f087 22bb b7e4 f038 b20f 9637
000001e0: 6ceb 2939 c7e7 00b9 20e3 123a 7344 ab38
000001f0: e437 dab8 ee34 b139 c3df 8a39 e44f e2b9
00000200: d89f 3d3a 44e5 eb39 7a9a 83b9 7f1e 423a
00000210: b66b a339 24b9 3339 03b8 6639 362d 2c39
00000220: d888 f3b7 81f9 ae39 8f65 1133 89e5 d533
00000230: bf94 8a37 2677 a937 63b0 ac37 84db b637
00000240: 2e65 88ba e9e4 c9b8 fc6c 04b9 65ca 52ba
00000250: 5fab 3a38 fd61 97b8 e12d 38ba 4ca7 af39
00000260: 92b9 24b8 db0e 8bba 87f1 81b8 e5e5 eab8
00000270: f984 a1b9 fe61 66b4 d8b8 edb9 c982 89b9
00000280: 34ea 2739 74a4 10b9 fd03 10b8 a37f e837
00000290: 9219 89b2 a367 8db6 ed47 ee36 635f efb5
000002a0: fbe8 87ba 4e2a 4337 aaad a4b8 5950 ddb9
000002b0: 8220 ac34 deaf 4db5 dfb8 29b9 4629 4f35
000002c0: 2bb2 d5b4 f1a1 69ba 3cf9 ac37 9cc5 adb4
000002d0: 5269 35ba b1c3 9e38 8a92 29b9 f484 77ba
000002e0: ad3f 0637 36f7 3734 f736 8939 91a5 6333
000002f0: 225e 0738 4271 6d39 e283 5e34 343c cdb4
00000300: daa0 42b6 02e4 28b5 b44a a234 fbc0 0b38
00000310: 1ae7 0d36 c482 a337 6231 bbb9 35c1 2634
00000320: 7c9e 53b4 7ca7 e7b9 9999 2235 2078 3a36
00000330: dd95 fbba 413f 323a 1497 1839 1211 bdba
00000340: 2d72 a139 c2f4 1c36 9ae0 d1ba d5a5 7939
00000350: 6202 ba36 8786 0fbb 63be 2e3a cb51 6c39
00000360: d9b0 acb5 2a5e 1835 453e 8834 7758 c935
00000370: 4d1b 6734 a3b5 0037 ab59 37b9 e6b8 0e37
00000380: 90f0 8b34 8c0b 1eb9 b074 6a37 1056 2336
00000390: 44e6 b2b8 1ba8 68b7 e28b 5eb4 5e82 10b8
000003a0: bd17 5f38 25dc b236 37f9 8ab9 fcb7 df38
000003b0: 08cc f3b5 6a2a f8b9 2f14 2e36 21a3 04b6
000003c0: 9544 47b5 348a d3b3 0d99 b9b2 e97d 6134
000003d0: 05b7 f1b4 644d 7835 adac d6b5 bc35 24b4
000003e0: bfeb b237 5bdc 5ab5 7e03 1c36 cea9 0138
000003f0: 7f42 f1b7 6738 2733 05aa e9b4 56fb 94b8
