media/253/canonical_flame_param.npz (npz, 65412 bytes, 8 tensors)

translation f4 [1, 3]
0	0x00000000	0.0
1	0x00000000	0.0
2	0x00000000	0.0

rotation f4 [1, 3]
0	0x00000000	0.0
1	0x00000000	0.0
2	0x00000000	0.0

neck_pose f4 [1, 3]
0	0x00000000	0.0
1	0x00000000	0.0
2	0x00000000	0.0

jaw_pose f8 [1, 3]
0	0x3fd3333333333333	0.3
1	0x0000000000000000	0.0
2	0x0000000000000000	0.0

eyes_pose f4 [1, 6]
0	0x00000000	0.0
1	0x00000000	0.0
2	0x00000000	0.0
3	0x00000000	0.0
4	0x00000000	0.0
5	0x00000000	0.0

shape f4 [300]
0	0x3f65f857	0.8983206
1	0x3f3efac3	0.7460138
2	0x3eacdad1	0.33760694
3	0xbe8264d3	-0.25467548
4	0x3c301213	0.010746497
5	0x3eee271b	0.4651421
6	0xbf4d8300	-0.80278015
7	0x3e6598bd	0.22421546
8	0x3de4d8f5	0.11174194
9	0x3ee32a09	0.44368008
10	0x3e1d75ae	0.15376922
11	0xbdacf2f3	-0.084447764
12	0x3f09d460	0.53839684
13	0xbde733de	-0.1128919
14	0x3dee06de	0.116224036
15	0x3eb05e4b	0.3444694
16	0x3cdc641c	0.026903205
17	0x3ef77bd8	0.48336673
18	0xbed49ac9	-0.41524342
19	0xbe0b05e4	-0.13576466
20	0xbe1386cf	-0.14406894
21	0xbead41c1	-0.3383923
22	0x3dd74a8f	0.10512268
23	0xbdf28012	-0.11840834
24	0x3e88a0cf	0.26685187
25	0xbe5a4e64	-0.21318966
26	0xba87527c	-0.0010324265
27	0x3bcda04f	0.006275214
28	0xbe309205	-0.17243202
29	0xbe03d7a5	-0.1287523
30	0xbe5b6065	-0.2142349
31	0xbe55bfb3	-0.20873909
32	0xbd5110c2	-0.051041372
33	0x3e7774a9	0.24165596
34	0xbe19aad7	-0.15006576
35	0x3dc77624	0.097393304
36	0xbcf2fe82	-0.029662374
37	0x3d703b8b	0.058650535
38	0x3dc15ff1	0.094421275
39	0xbd1a1b99	-0.037623975
40	0x3d7d6b9e	0.06187021
41	0x3e2b59d8	0.16733491
42	0xbc4b216f	-0.012398108
43	0xbdc05d66	-0.09392814
44	0xbd68fa9e	-0.056879632
45	0x3bd118aa	0.006381114
46	0xbdc23aad	-0.09483848
47	0xbd0de09e	-0.03463804
48	0xbdd3060e	-0.10303889
49	0x3ddfb237	0.10922664
50	0xbd794500	-0.06085682
51	0xbb80ae60	-0.003927037
52	0xbd40798f	-0.046990927
53	0xbd5d20e9	-0.053986464
54	0x3d8562b9	0.065129705
55	0x3a3fe2e9	0.0007319884
56	0xbc78d9ca	-0.015188644
57	0xbb927c41	-0.0044703786
58	0xbd63cc4a	-0.055614747
59	0x3da9a9ef	0.082843654
60	0xbbf7b639	-0.0075595644
61	0xbd9227f2	-0.07136525
62	0x3ce96979	0.028492676
63	0x3cff84e1	0.031191291
64	0x3de02361	0.10944248
65	0x3bd31b73	0.006442481
66	0xbd4a15df	-0.049337264
67	0x3c9683ae	0.018373337
68	0x3aa88370	0.0012856554
69	0xbd86b785	-0.06577972
70	0x3cacf350	0.021112114
71	0xbd36cb67	-0.044627573
72	0x3d813f74	0.06310931
73	0xbd5e5b70	-0.05428642
74	0xbd891997	-0.06694334
75	0xbdd5b8ce	-0.10435639
76	0xbd41cb78	-0.047313184
77	0x3c44c14f	0.012008979
78	0xbd61aa8c	-0.055094287
79	0xbc519088	-0.012790807
80	0x3b9e0e8c	0.0048235115
81	0xbcbd48ca	-0.023105998
82	0x3d00ea59	0.03147349
83	0xbd8bac0c	-0.06819925
84	0xbdb5a313	-0.088689946
85	0x3d7e78b0	0.062126815
86	0xbc2de23c	-0.0106130205
87	0x3c96abb0	0.018392414
88	0x3db8552e	0.09000622
89	0x3d97288f	0.07380783
90	0x3cc8b798	0.024501607
91	0x3c962562	0.018328372
92	0x3d1e0809	0.03858188
93	0x3cced5cd	0.025248433
94	0x3d0ad6ab	0.03389613
95	0xbd957cb9	-0.072991796
96	0xbd4b33dc	-0.049610004
97	0x3d610086	0.05493214
98	0xbde7fa55	-0.11327044
99	0x3d5d1e3a	0.053983904
100	0xbd81adc5	-0.06331972
101	0xbd4db8a7	-0.050224926
102	0x3d0409d1	0.032235924
103	0x3bc15752	0.005900302
104	0xbd7401a3	-0.059571873
105	0xbdd5b09a	-0.10434075
106	0xbbc150f7	-0.0058995443
107	0x3c46f589	0.012143501
108	0x3bf65ffc	0.0075187664
109	0xbc7b28e3	-0.015329572
110	0x3da80370	0.08203781
111	0xb914a347	-0.00014175205
112	0x3946c20d	0.00018955041
113	0x3b1f8dd8	0.002434602
114	0x3d90cdd3	0.07070508
115	0xbd29c812	-0.041450568
116	0x3b56befb	0.0032767642
117	0x3d52420b	0.051332515
118	0xbd046fd3	-0.032333206
119	0x3c973477	0.018457634
120	0xbc435c8e	-0.011923922
121	0xbcfc605f	-0.030807672
122	0x3d2be07c	0.04196213
123	0xbd22cc63	-0.0397457
124	0x3c501b95	0.012701889
125	0x3cf1b3c2	0.02950466
126	0xbb20268c	-0.0024437038
127	0xbce2f62d	-0.027705276
128	0x3ca3f473	0.020014023
129	0x3cca5a93	0.024701392
130	0x3d12ff9a	0.035888292
131	0xbc35a2c8	-0.011086173
132	0x3bc1cbaa	0.005914171
133	0x3cb72519	0.022356557
134	0xbd2c15dc	-0.042013034
135	0x3c0679d9	0.008207762
136	0xbcb2d49d	-0.021829898
137	0xbb582513	-0.0032981082
138	0x3d0c7f89	0.034301315
139	0xbbd20882	-0.0064097056
140	0x3d1d2a89	0.038370643
141	0xbd0ee9e3	-0.03489102
142	0x3da045cc	0.07825813
143	0xbbd29f88	-0.006427709
144	0xbd317417	-0.043323603
145	0xbcf6793c	-0.030087106
146	0xbd056d1e	-0.032574765
147	0xbd37f543	-0.044911634
148	0x3bc8ec9e	0.0061317226
149	0x3d3fba90	0.04680878
150	0x3c7971c9	0.015224882
151	0x3ab62d01	0.001389891
152	0x3b1b1f1b	0.0023669663
153	0xbaef153f	-0.0018240585
154	0x3ae83d12	0.0017718396
155	0x3cf3084f	0.029667048
156	0xb83de7b0	-4.5276887e-05
157	0xbd7cf65d	-0.061758388
158	0xbb6ef98c	-0.003646466
159	0xbc6dbd8c	-0.0145105235
160	0x3c6dd71d	0.014516619
161	0x3cb48cbf	0.02203977
162	0x3d1a1818	0.037620634
163	0xbcb8e79c	-0.022571377
164	0xbb387e7d	-0.0028151565
165	0x3cc617ed	0.02418133
166	0x3ca6658b	0.020312091
167	0xbc5f83ac	-0.013642233
168	0x3cf56068	0.029953197
169	0xbcae30a4	-0.021263428
170	0x3cb6cd2b	0.022314629
171	0xbd84666a	-0.064648464
172	0x3c0d397b	0.008619661
173	0x3b9ad6ed	0.004725328
174	0x3b6cad46	0.0036114021
175	0xbb743af0	-0.0037266575
176	0x3c965cc1	0.018354775
177	0xbca60f88	-0.020271078
178	0xbc066744	-0.008203331
179	0xbc59ff55	-0.013305505
180	0x3ccaa673	0.024737572
181	0xbd0182f0	-0.031619012
182	0xb9f27b3d	-0.00046249657
183	0xbc78d879	-0.01518833
184	0xbd238010	-0.03991705
185	0x3c31c784	0.010850791
186	0xbbbef9ed	-0.0058281333
187	0x3cc1dc23	0.02366454
188	0xbc472eaf	-0.012157126
189	0xbc28c89b	-0.010301734
190	0xbc81f1f7	-0.015862448
191	0x3b9004b5	0.0043950924
192	0x3cd55e6f	0.026046006
193	0xb9d23888	-0.0004009644
194	0x3ce3536a	0.027749736
195	0x3c06077f	0.008180498
196	0xbc1c825b	-0.009552564
197	0xbc5a6b94	-0.013331313
198	0xbc648075	-0.013946642
199	0x3c315bbc	0.010825094
200	0x3c3d42ff	0.011551618
201	0x3a45cc74	0.00075454195
202	0xbc07d334	-0.008290101
203	0x3c6dcb11	0.014513747
204	0xbc6610d7	-0.014042101
205	0x3c3f8999	0.011690521
206	0xbc33af6c	-0.010967117
207	0x3961d4dc	0.00021536968
208	0x3c9975e9	0.018732982
209	0xbc5df04b	-0.01354606
210	0xbb56f4fc	-0.003279983
211	0xbbe005fb	-0.0068366504
212	0x3be45813	0.006968507
213	0xbc42695e	-0.011865942
214	0x3d18db0c	0.037318274
215	0x3d346a06	0.044046424
216	0x3c9a09c2	0.018803481
217	0x3b62dad1	0.0034615288
218	0xbc03bef2	-0.00804113
219	0x3be76cf1	0.0070625474
220	0x3cf6a898	0.030109689
221	0xbb9438f7	-0.0045233923
222	0xbcd50fe3	-0.026008552
223	0x3c2fb431	0.010724113
224	0xbb61e8be	-0.0034471
225	0x3b98f72e	0.004668138
226	0x3c922dbc	0.017844073
227	0x3c97faef	0.018552272
228	0xbcbc8226	-0.023011278
229	0x3c7780ee	0.015106423
230	0xbc222b74	-0.009898055
231	0xb98d0ee9	-0.00026904725
232	0xbc7bb269	-0.0153623605
233	0xbb14b455	-0.0022690494
234	0xbc400bb6	-0.011721542
235	0xb688c78e	-4.076347e-06
236	0xbc396caa	-0.011317411
237	0x3c1bdeb2	0.009513544
238	0xbc377d52	-0.011199312
239	0xbcb23005	-0.021751413
240	0xbc048132	-0.008087443
241	0x3b7858da	0.0037894757
242	0x3d23b71f	0.03996956
243	0x3a0518f1	0.0005077264
244	0x3c92110e	0.017830398
245	0x3c956c11	0.018240007
246	0x3ca6aa78	0.020344958
247	0xbb9751dd	-0.004617913
248	0x3d1061e1	0.035249595
249	0x3c68f6ea	0.014219025
250	0xbba2b4fb	-0.004965422
251	0xbc284dd7	-0.010272465
252	0x3c07e465	0.0082942
253	0x3cb97d22	0.022642676
254	0x3c6892b3	0.014195132
255	0xbc85bf50	-0.016326576

expr f4 [1, 100]
0	0x00000000	0.0
1	0x00000000	0.0
2	0x00000000	0.0
3	0x00000000	0.0
4	0x00000000	0.0
5	0x00000000	0.0
6	0x00000000	0.0
7	0x00000000	0.0
8	0x00000000	0.0
9	0x00000000	0.0
10	0x00000000	0.0
11	0x00000000	0.0
12	0x00000000	0.0
13	0x00000000	0.0
14	0x00000000	0.0
15	0x00000000	0.0
16	0x00000000	0.0
17	0x00000000	0.0
18	0x00000000	0.0
19	0x00000000	0.0
20	0x00000000	0.0
21	0x00000000	0.0
22	0x00000000	0.0
23	0x00000000	0.0
24	0x00000000	0.0
25	0x00000000	0.0
26	0x00000000	0.0
27	0x00000000	0.0
28	0x00000000	0.0
29	0x00000000	0.0
30	0x00000000	0.0
31	0x00000000	0.0
32	0x00000000	0.0
33	0x00000000	0.0
34	0x00000000	0.0
35	0x00000000	0.0
36	0x00000000	0.0
37	0x00000000	0.0
38	0x00000000	0.0
39	0x00000000	0.0
40	0x00000000	0.0
41	0x00000000	0.0
42	0x00000000	0.0
43	0x00000000	0.0
44	0x00000000	0.0
45	0x00000000	0.0
46	0x00000000	0.0
47	0x00000000	0.0
48	0x00000000	0.0
49	0x00000000	0.0
50	0x00000000	0.0
51	0x00000000	0.0
52	0x00000000	0.0
53	0x00000000	0.0
54	0x00000000	0.0
55	0x00000000	0.0
56	0x00000000	0.0
57	0x00000000	0.0
58	0x00000000	0.0
59	0x00000000	0.0
60	0x00000000	0.0
61	0x00000000	0.0
62	0x00000000	0.0
63	0x00000000	0.0
64	0x00000000	0.0
65	0x00000000	0.0
66	0x00000000	0.0
67	0x00000000	0.0
68	0x00000000	0.0
69	0x00000000	0.0
70	0x00000000	0.0
71	0x00000000	0.0
72	0x00000000	0.0
73	0x00000000	0.0
74	0x00000000	0.0
75	0x00000000	0.0
76	0x00000000	0.0
77	0x00000000	0.0
78	0x00000000	0.0
79	0x00000000	0.0
80	0x00000000	0.0
81	0x00000000	0.0
82	0x00000000	0.0
83	0x00000000	0.0
84	0x00000000	0.0
85	0x00000000	0.0
86	0x00000000	0.0
87	0x00000000	0.0
88	0x00000000	0.0
89	0x00000000	0.0
90	0x00000000	0.0
91	0x00000000	0.0
92	0x00000000	0.0
93	0x00000000	0.0
94	0x00000000	0.0
95	0x00000000	0.0
96	0x00000000	0.0
97	0x00000000	0.0
98	0x00000000	0.0
99	0x00000000	0.0

static_offset f4 [1, 5143, 3]
0	0x34ebfbf5	4.3955484e-07
1	0x3422ff82	1.5180379e-07
2	0xb48b3aa7	-2.5933443e-07
3	0x341f3099	1.4825709e-07
4	0x342c642d	1.6055192e-07
5	0xb4b6d38f	-3.405407e-07
6	0x355bfc34	8.195086e-07
7	0xb4195fdc	-1.4284109e-07
8	0xb49e82c9	-2.9524952e-07
9	0x343c0ed3	1.7514257e-07
10	0x33db904d	1.022423e-07
11	0xb5289cb6	-6.281292e-07
12	0x36a793d7	4.9941987e-06
13	0xb764c590	-1.3635858e-05
14	0xb90f5793	-0.00013670167
15	0x38230f19	3.887629e-05
16	0xb585a2f2	-9.956696e-07
17	0xb4ef5b44	-4.4583624e-07
18	0x383ebb3a	4.54739e-05
19	0x34494046	1.8742966e-07
20	0x3417c7a0	1.4135594e-07
21	0x37970101	1.800107e-05
22	0x363884ea	2.7495503e-06
23	0xb840875e	-4.5902438e-05
24	0x3ba7bbcb	0.005118822
25	0xbbbeff30	-0.0058287606
26	0xbbb0030f	-0.0053714584
27	0x3b06760f	0.0020517146
28	0xbb258ece	-0.002526212
29	0xbb250b6e	-0.0025183815
30	0x3af58e4a	0.0018734422
31	0xbb14ed6c	-0.0022724522
32	0xbb06f298	-0.0020591374
33	0x3b1e13fa	0.0024120794
34	0xbb2e5bab	-0.0026604931
35	0xbb09f646	-0.0021051331
36	0x3a0fb960	0.000548264
37	0xb90b79a2	-0.00013301385
38	0x384d2995	4.8914535e-05
39	0x3a2eebee	0.00066727295
40	0xba195fef	-0.0005850782
41	0xb8bf1fe1	-9.1135276e-05
42	0x39aacd64	0.00032577955
43	0xb9287d6d	-0.00016068453
44	0x38bcde3d	9.005934e-05
45	0x3a3b9e44	0.00071570673
46	0x381e072d	3.767682e-05
47	0x3812602e	3.4898687e-05
48	0x3a9de8b4	0.00120475
49	0x39345a88	0.00017199863
50	0xb9a68b88	-0.00031765946
51	0x3a1b8e20	0.0005933959
52	0x398ecd3b	0.0002723726
53	0xb90a2460	-0.00013174256
54	0x3a63a8a4	0.0008684492
55	0x3997117a	0.00028813985
56	0x382a4014	4.0590836e-05
57	0xb4a97036	-3.1560347e-07
58	0xb48d8b7b	-2.6364782e-07
59	0x33753269	5.7089355e-08
60	0xb3cbb947	-9.486626e-08
61	0x349b0472	2.8874234e-07
62	0x350a2612	5.1464406e-07
63	0x351fcc49	5.952939e-07
64	0x33a760c5	7.794146e-08
65	0x333f87e1	4.4594234e-08
66	0x348144c3	2.4078153e-07
67	0xb4dec0f7	-4.1491123e-07
68	0x3424e866	1.5358236e-07
69	0x34e66180	4.291178e-07
70	0x37318014	1.0579843e-05
71	0xb3fcab6a	-1.17658445e-07
72	0x38dd454d	0.000105510095
73	0x350ae8b7	5.174765e-07
74	0xb5309f39	-6.579681e-07
75	0x38b7c72e	8.76322e-05
76	0xb4f7762c	-4.6093317e-07
77	0xb491b103	-2.7137148e-07
78	0xb581e7ac	-9.678674e-07
79	0x35564c02	7.983182e-07
80	0x35207b3d	5.978398e-07
81	0x3ab4a2e0	0.0013781451
82	0x39c6557f	0.00037829202
83	0x39a50b64	0.0003147974
84	0xb732307d	-1.0620916e-05
85	0x3883cfa7	6.285245e-05
86	0xb9ae6901	-0.000332661
87	0x399427c9	0.00028258402
88	0x36f9a241	7.439667e-06
89	0xba4b03f0	-0.0007744422
90	0x39ae9347	0.00033297596
91	0xb5e9535b	-1.7384112e-06
92	0xb9f50604	-0.00046734523
93	0x39721559	0.00023086871
94	0xb4e0a49a	-4.1843015e-07
95	0xb8d6a1bb	-0.0001023444
96	0xb9c71110	-0.0003796895
97	0xb5dc228f	-1.6401335e-06
98	0x381654ed	3.584188e-05
99	0xb9f2d840	-0.00046318956
100	0xb78e1129	-1.693571e-05
101	0xba1372b4	-0.0005624697
102	0xb8b69e10	-8.707878e-05
103	0xb4ef0a11	-4.4524543e-07
104	0xb9e60c35	-0.00043878114
105	0x37ae8911	2.0806243e-05
106	0xb62b5821	-2.5532283e-06
107	0xb91eccd4	-0.00015144359
108	0xb8acf370	-8.246943e-05
109	0xb7d0a8a3	-2.487406e-05
110	0xb9ddc52a	-0.00042299303
111	0xb8f9dc3b	-0.00011914266
112	0xb6087541	-2.033383e-06
113	0x3598170d	1.1331591e-06
114	0xba00e3d2	-0.00049167604
115	0x34efb9f0	4.4652506e-07
116	0xb908acbd	-0.0001303432
117	0xb9b8d18a	-0.00035251334
118	0xb51ded39	-5.883226e-07
119	0xb9fa6a5b	-0.00047762957
120	0xb9353321	-0.00017280552
121	0x39eb5298	0.0004488423
122	0xb9a1af68	-0.00030839
123	0xb951510e	-0.00019961988
124	0x396509db	0.00021842813
125	0xb9709aba	-0.00022945824
126	0xb9bf0495	-0.00036433773
127	0x39dabfa3	0.0004172298
128	0xb9e8bf78	-0.00044393144
129	0xb965c80c	-0.00021913665
130	0x3a0479e7	0.0005053565
131	0xb9e556da	-0.00043742993
132	0xb88f5dbb	-6.83623e-05
133	0x391dc433	0.00015045777
134	0xb91ed3ad	-0.0001514691
135	0xb9183c4f	-0.00014518316
136	0xb8a0ad35	-7.661657e-05
137	0xb994b550	-0.00028363848
138	0x32d9e468	2.5365992e-08
139	0xb86fa0d5	-5.7131827e-05
140	0xb89089ec	-6.892145e-05
141	0xb49a3c2a	-2.872851e-07
142	0xb57efcea	-9.499041e-07
143	0xb7f430a1	-2.9109711e-05
144	0xba476192	-0.00076057867
145	0xbb2af813	-0.0026087805
146	0xb92fe8e1	-0.00016776055
147	0xb5211677	-6.0009864e-07
148	0xbae0bb95	-0.0017145748
149	0xb92767d8	-0.00015965046
150	0x3a0448eb	0.0005046266
151	0xbb09b21f	-0.002101071
152	0xb9a346c8	-0.0003114252
153	0xb9514ea8	-0.00019961095
154	0xbb206c35	-0.002447856
155	0xb9f744ce	-0.00047162775
156	0x3a9bbfc3	0.0011882711
157	0xb88f47bb	-6.832132e-05
158	0xb969d1ab	-0.00022298719
159	0x3a161c34	0.00057262485
160	0x350cd65c	5.2466e-07
161	0xb9078b44	-0.00012926484
162	0x38d1aac2	9.997703e-05
163	0x35b216d1	1.3268674e-06
164	0xb2c7c931	-2.325814e-08
165	0x39355b3c	0.00017295493
166	0x345fbab8	2.0836421e-07
167	0xb4caec29	-3.779726e-07
168	0xb9ebcbca	-0.00044974528
169	0x3931ba56	0.00016949451
170	0xb9626864	-0.00021591928
171	0xb9da135e	-0.0004159463
172	0x391c1690	0.00014885725
173	0xb9db644f	-0.0004184567
174	0xb9d432ba	-0.00040473585
175	0x38e74c3d	0.00011029139
176	0xba37b444	-0.00070077577
177	0xba30bf69	-0.00067423895
178	0x3909ce38	0.0001314216
179	0xba392947	-0.0007063341
180	0xb7cf7900	-2.4732668e-05
181	0x36d0845d	6.214292e-06
182	0xb904f455	-0.00012679522
183	0x390f83b8	0.00013686612
184	0x370d5b2d	8.425483e-06
185	0xba02faab	-0.0004996459
186	0x35de546c	1.6564859e-06
187	0xb482abdd	-2.4339434e-07
188	0x34fe79d9	4.7399843e-07
189	0xb59fda90	-1.1910033e-06
190	0xb379c321	-5.81523e-08
191	0x35726019	9.0291866e-07
192	0x38f0715d	0.00011465207
193	0xb5c49733	-1.4647143e-06
194	0xb4c267c9	-3.621083e-07
195	0x381e79d6	3.7783604e-05
196	0x36e13d10	6.712631e-06
197	0xb5db477c	-1.6337576e-06
198	0x37093d37	8.180089e-06
199	0xb559e75e	-8.1175483e-07
200	0xb52a6768	-6.348041e-07
201	0x38dbaa14	0.00010474413
202	0xb565a08b	-8.554277e-07
203	0x348b2b4b	2.5922267e-07
204	0x38a88500	8.0356374e-05
205	0xba11d39a	-0.0005562842
206	0xba357291	-0.0006921674
207	0x38e9eea2	0.000111547546
208	0xb84638f9	-4.725994e-05
209	0xb942c195	-0.00018573397
210	0x389d7b46	7.509305e-05
211	0xb7848ec5	-1.5802108e-05
212	0xb99b068b	-0.0002956878
213	0x38baef42	8.9137364e-05
214	0xb9ae0872	-0.00033194158
215	0xba41eb27	-0.0007397406
216	0xb81f5e2d	-3.7996262e-05
217	0xb61f7329	-2.3759878e-06
218	0x3529b586	6.322156e-07
219	0xb90b0cf2	-0.00013260896
220	0x3655a0ca	3.1833065e-06
221	0xb4f63ddb	-4.5866076e-07
222	0xb54aead8	-7.5592607e-07
223	0x372179d5	9.624714e-06
224	0x39a495c4	0.00031392102
225	0x36085af1	2.0318514e-06
226	0xb56bc2ba	-8.7827686e-07
227	0x392bb456	0.00016375011
228	0x38983fdd	7.25982e-05
229	0xb795dc79	-1.786485e-05
230	0x359cce9c	1.1683037e-06
231	0x38bed2ec	9.099193e-05
232	0xb919b9d9	-0.0001466045
233	0x352efdb7	6.5189255e-07
234	0xb61d2179	-2.3414307e-06
235	0xba0899f5	-0.00052109297
236	0xb54c6bf9	-7.6153043e-07
237	0xb6b258d3	-5.315154e-06
238	0xb8aae255	-8.148389e-05
239	0x3704d468	7.917268e-06
240	0xb5880270	-1.0133499e-06
241	0xb3910609	-6.7531865e-08
242	0xb47c856b	-2.3517866e-07
243	0xb58fd882	-1.0717342e-06
244	0xb404385b	-1.231396e-07
245	0x34890db5	2.5528212e-07
246	0x330ad1b3	3.232135e-08
247	0x333a70b5	4.3409006e-08
248	0x359f2b34	1.1858997e-06
249	0xb7c73803	-2.3748731e-05
250	0x34cb9c4f	3.7925426e-07
251	0x33287383	3.9220605e-08
252	0xb6e27c40	-6.7497895e-06
253	0x314835fb	2.9134515e-09
254	0xb98c1aa1	-0.0002672272
255	0xb850266b	-4.9626844e-05
